Reseaux Neuron/lab3/model_params.pth (torch, 34327 bytes, 6 tensors)

model.0.weight f4 [10, 784]
00000000: 0025 d33a 6345 483d 2ae5 8dbd 77c6 7cbd
00000010: debf ffbc 447d d13c 8265 0d3a 82ca 913d
00000020: b5ac b2bb 08f7 ce3c 54af c4bc b4e6 72bc
00000030: 0473 a5bd a18c 62bd 4d83 09bd 6fa1 b33b
00000040: 1907 163d bfe8 5e3d f91f 68bd a5c9 11bd
00000050: 7b97 0a3d 8a77 983d ea06 80bc d6da 893d
00000060: 3882 40bc 00c3 3b3c c0d5 a53d 8e85 a0bd
00000070: f1e3 56bd bcc1 a1bc 6387 01bd 7873 9e3d
00000080: 2987 5dbd 97a4 1abd c37e 6fbd c21a a2bd
00000090: 6b95 46bd d0aa 9d3d 3325 283d 5bd6 353d
000000a0: 3beb df3b 8c89 2cbd f4ad 8e3c 428c a0bd
000000b0: 03a0 75bd 69b2 2dbd b7ea 693d d307 5a3d
000000c0: cba5 14bd 7e58 65ba b3fc 6c3d 5e9e b53d
000000d0: 1b94 163d 4076 653c 9fff 773d d162 48bd
000000e0: 643a 973c 6465 85bd 7984 6dbd f1ab 2ebd
000000f0: 535f 2a3d 3b75 183d 6ba6 49bd 6caa e93c
00000100: 5fbb 4c3d 58b5 0ebc 4bdf b63b a3a5 b63c
00000110: 5a2f 633d d887 ae3d 5357 83bd b8da dabc
00000120: b07c 2c3d ef50 a23d 8689 a53d a679 a53d
00000130: d96b a23c 282e 96bd 8813 283c 797d 55bd
00000140: cc48 a1bd b4cf a23d f0ff 8b3d 62f5 acbd
00000150: 58d1 973c 58df 4abc c851 45bc c9b9 19bd
00000160: 9330 123d f5a1 49bd 0bcb 0b3d 8d31 3d3d
00000170: fa89 833d 25ce 0c3d 26d9 acbd 9089 63bd
00000180: 22b4 343d 76d0 973c c8ec 88bd 477f 3ebd
00000190: 6c6c b33d b418 803d a3a9 10bd cbe7 a6bc
000001a0: b165 a9bd c029 12b8 6414 80bd 6cb1 84bd
000001b0: 4ead 25bb 60e6 7a3c d98d 08bd 078b 5c3d
000001c0: db69 4fbd 102c a63d e745 7d3d 867f 91bd
000001d0: 50b5 9ebc 9a2e c73b ba9b 723c b8ca b53c
000001e0: cd92 0d3d 36e3 d03b 3517 21bd 0065 283d
000001f0: 5bd4 bcbd 766e 78bd 859d ebbc e35f 44bd
00000200: 072c 09bd 2f2c 9dbd 1e9c b4bc 586b 4a3c
00000210: 283a 68bd 1b65 94bb ad57 823d 43b2 d5bb
00000220: e019 9a3b c59f abbb 10a6 a23c 7fa9 6b3d
00000230: 7445 ad3d 1362 6b3d 3ca8 ad3d 5525 81bb
00000240: 0d4d 9abd a380 20bd 7977 733d b0fe 183a
00000250: de99 1bbd 454d 71bd 9b89 94bd 060b 88bd
00000260: a787 b1bc 73ab 2c3d fb01 1b3d ee17 cbbd
00000270: 7013 0f3d f91d babd 8768 0fbd 7c06 4bbd
00000280: c4d0 aabc fe52 86bc b643 9fbd f758 97bd
00000290: a2f1 41bc 2c5d 833b 657c 18bd 6564 0f3d
000002a0: 1e9b 9bbd de3f 6cbb 3032 a13d cb19 04bd
000002b0: 327a a83d b896 0f3d 8c24 9bbd 9a0f 723d
000002c0: 337d 63bb d9d6 01bd 9e54 a13d d80a 81bd
000002d0: 12bc dd3b 9c13 c9bc a35c 523d b0d2 f13b
000002e0: 2df0 693c 6670 aa39 21dd 37bd bf33 01bd
000002f0: 2af5 97bd eec0 3f3d ad0d 883d 763b 6a3d
00000300: cf3d 7cbd b3cb c13b 6fbc 71bd 0bbe 3abd
00000310: 1337 46bd 4bf2 023d fbea 4abd 244b 2d3b
00000320: b9f3 153c a31d 803d 64f2 77bd 5e63 66bd
00000330: 8522 44bd 3a7b 863d 2b5c a9bc 1e63 ab3d
00000340: 221b f43c aa08 093c 4455 08bc 7798 06bd
00000350: 9b96 aebc 7bfc 4fbd df71 b1bc 7c37 9a3b
00000360: 5339 8fbd 9cf8 54bd a2f3 7b3d f888 9ebd
00000370: 9abc 30bc 18e8 ad3d fde2 093d ffc2 9a3b
00000380: aca6 95bd 2ba6 393d 195a 74bd 5cbb a3bc
00000390: a9f9 c3bc cf07 c7bb 436a e13b e734 9b3d
000003a0: cc97 203c a2f8 a23d df3e 783d c3ff 3bbd
000003b0: 4482 223d 82e8 85bd fba1 5ebd c54f 2b3b
000003c0: a41d 843b 6efe 433d 4c09 14bd d88a 0f3c
000003d0: aa84 4e3d 70b8 b4bd c24f 5d3d a7f8 9dbd
000003e0: 1089 59bb a7e3 96bc 9d43 32bd e84c 613c
000003f0: 6cd9 973d b441 bcbc 2aff 49bd 0cd9 e2bc
0.0016109049 0.048894297 -0.06928475 -0.06171271 -0.03121942 0.025572427 0.0005393849 0.071187034
-0.005452717 0.025264278 -0.024009384 -0.014825512 -0.08078578 -0.055309895 -0.033572484 0.005481891
0.036627863 0.054421183 -0.056671117 -0.035592694 0.03383587 0.07444675 -0.015628297 0.06731193
-0.011749797 0.011460066 0.0809741 -0.078379735 -0.052463476 -0.0197457 -0.031623255 0.07736868
-0.054083977 -0.03775462 -0.0584705 -0.0791526 -0.04848234 0.076985955 0.0410511 0.04439388
0.0068334616 -0.042123362 0.017416932 -0.07839252 -0.059967052 -0.042406473 0.057108607 0.053230118
-0.036290925 -0.0008748843 0.05785818 0.08868097 0.036762338 0.014005244 0.060546514 -0.048922364
0.01846046 -0.06513479 -0.057987664 -0.042644445 0.041594815 0.037221175 -0.049230974 0.028523646
0.04998338 -0.008710228 0.005580818 0.022295779 0.05546508 0.08522004 -0.0641314 -0.026715621
0.0421111 0.07925593 0.08082871 0.08079843 0.019826816 -0.07333022 0.010258563 -0.052121613
-0.07875213 0.079497725 0.068359256 -0.084452406 0.01853244 -0.012382351 -0.012043424 -0.037530694
0.035690855 -0.04922672 0.034129184 0.046189833 0.06422801 0.034376282 -0.08439855 -0.05555111
0.0441171 0.01853202 -0.066857874 -0.0465081 0.08760914 0.06254712 -0.03531803 -0.0203742
-0.08271349 -3.4847995e-05 -0.06253889 -0.06479153 -0.00252803 0.015313715 -0.0333384 0.053843524
-0.05063806 0.08113873 0.061834242 -0.07104401 -0.019373566 0.0060785534 0.014807636 0.02219139
0.03456383 0.006374742 -0.039328773 0.041111946 -0.09220191 -0.06065222 -0.028761635 -0.047943007
-0.033489253 -0.07674443 -0.022047099 0.012354694 -0.056696087 -0.0045286543 0.06364379 -0.0065214946
0.0047027916 -0.005237552 0.019854575 0.05753469 0.08460513 0.057466578 0.08479354 -0.003941218
-0.075342275 -0.039185178 0.05944011 0.0005836291 -0.037988536 -0.05891158 -0.07252809 -0.066427276
-0.02167113 0.042155694 0.037843686 -0.099166736 0.034930646 -0.09087748 -0.035011794 -0.04956673
-0.0208515 -0.016396996 -0.07776587 -0.073900156 -0.011837395 0.0040089097 -0.037228007 0.035007853
-0.07597946 -0.003604881 0.07870901 -0.03225116 0.08226432 0.035055846 -0.0757533 0.05909691
-0.0034712076 -0.031699035 0.078774676 -0.063008964 0.0067668045 -0.024545483 0.051357877 0.0073798522
0.014278454 0.0003250867 -0.04488862 -0.03154349 -0.07419808 0.04681485 0.066432334 0.057185613
-0.061582383 0.0059141754 -0.059017595 -0.045591395 -0.048392367 0.03196935 -0.0495405 0.0026442492
0.009152346 0.06255653 -0.060533896 -0.056247108 -0.047884483 0.06566472 -0.020673832 0.083685145
0.029798094 0.008363882 -0.00832111 -0.032860246 -0.021312049 -0.050777894 -0.021660743 0.0047063213
-0.069933556 -0.051994905 0.061511643 -0.077409685 -0.010787154 0.08491534 0.03366374 0.0047229524
-0.07307181 0.045324486 -0.059656236 -0.0199868 -0.023922758 -0.006073929 0.0068791225 0.0757845
0.009801816 0.07957579 0.060606834 -0.04589821 0.039675012 -0.06538488 -0.054353695 0.0026140076
0.0040318538 0.047850065 -0.03614168 0.00876113 0.050419487 -0.08824241 0.05403114 -0.07713442
-0.0033193268 -0.0184191 -0.043521512 0.013751246 0.07414517 -0.022980548 -0.04931561 -0.027691387

model.0.bias f4 [10]
00000000: 5bf9 983b a1a8 ec3b a01e 4c3c 4fb2 4e3c
00000010: 3e65 673c dd46 ed3b 3a5a ab3b 5a44 913b
00000020: ee1f 693c 9a66 1f3b
0.0046683974 0.0072222506 0.012458473 0.012615754 0.014123259 0.0072411136 0.0052292617 0.004433197
0.014228804 0.002432263

model.2.weight f4 [10, 10]
00000000: 683c 03be ce20 093f 724e 32be 3cd8 14bf
00000010: f503 11bf f65a 94be bf0c 0d3f 7b2d c63e
00000020: 1385 fe3e cfea 9f3e e055 e63d eda6 05bf
00000030: 5a11 02bf 9f0e f0bd ec1b 8abd 00e9 0c3f
00000040: c41f 45be 3aae 23be be26 8c3d 9578 183f
00000050: fa9d efbd f66f 543e c6bb f5be 852e 1bbf
00000060: f8c8 9abd 51a6 833e f600 d53e 0b85 353e
00000070: d962 eb3e b710 d6be 0d2b 4a3c 0289 003f
00000080: c629 cebe d238 ab3e 533c 14bf 56d9 a93e
00000090: 0b7d a23e 71ab 093f c87e 6ebd add9 0fbe
000000a0: ee32 acbe 5fa5 1a3f 4556 243e 0bc8 3c3c
000000b0: b62d 7a3c bdd1 d83e 17e1 c6be 8626 12bf
000000c0: 8f3a 3dbe 3715 013e 380b 733d 31bd c0be
000000d0: 45c5 66bd 2685 14be af9c 033f 1607 c1be
000000e0: ec30 1d3f bf44 b4bd 87c7 cc3e 4d12 5e3e
000000f0: e467 0abf f6a4 f83e 005f 4bbe 2dbe b1be
00000100: 6c27 5c3e c901 0e3e b986 9bbe 3058 86be
00000110: 4527 073f a490 35bf 66f5 633b 9307 e83c
00000120: bd68 00bf 67e8 583e d36b 09bf 36e0 18bc
00000130: 902b 12be c0cd 9d3e b548 82bd a292 1bbf
00000140: 2f8e f8bc 46f3 053f 54df 2abe 73fb 1c3f
00000150: 91df 673e 8b80 80bd 78f4 9abc dad0 d63e
00000160: e3a5 dfbc 0d99 ee3d 996a cb3d ac0e 8bbd
00000170: 03ab 28bf 9b93 0dbf 019e 153f 4484 7f3e
00000180: 7e89 a83d c3b0 2d3f 82e9 6abe c769 9c3e
-0.12816012 0.5356568 -0.17412737 -0.5814245 -0.5664666 -0.28975648 0.55097574 0.38706574
0.49710903 0.31233832 0.11246848 -0.52207834 -0.50807726 -0.11721539 -0.06743607 0.5504303
-0.19250399 -0.15984431 0.06843327 0.59558994 -0.117000535 0.20745835 -0.47994822 -0.6061786
-0.07557863 0.25712827 0.41602296 0.17726533 0.45973852 -0.41809627 0.012339366 0.5020906
-0.40266246 0.33441788 -0.5790455 0.33173627 0.31736025 0.53777224 -0.058226377 -0.1404788
-0.33632606 0.60408586 0.16048534 0.011522303 0.015269687 0.42347518 -0.38843605 -0.5709003
-0.1847937 0.12605749 0.05933687 -0.37644342 -0.056340475 -0.14503917 0.51410955 -0.3770072
0.61402774 -0.08802175 0.39995977 0.21686669 -0.54064775 0.48563355 -0.19860458 -0.34715405
0.21499413 0.13867868 -0.30376223 -0.26239157 0.52794296 -0.7092383 0.003478372 0.028323924
-0.5015982 0.21182404 -0.5368015 -0.0093308 -0.1427443 0.30821037 -0.06361524 -0.6077062
-0.030341236 0.5232433 -0.16686755 0.6132118 0.22643878 -0.062745176 -0.0189154 0.41956216
-0.02730078 0.11650286 0.09932441 -0.06789908 -0.65885943 -0.55303353 0.5844422 0.24952799
0.082293496 0.6784784 -0.22940639 0.30549452

model.2.bias f4 [10]
00000000: ad60 c8bb 0906 463d 6380 e3bc 902b 7cbd
00000010: 95eb 853d b938 86bd da2d 163d aa1d 623b
00000020: 164b 053d 332a 49bd
-0.0061150403 0.0483456 -0.02777118 -0.061564982 0.06539074 -0.06553788 0.03666482 0.0034502544
0.03254231 -0.04911251

model.4.weight f4 [10, 10]
00000000: eb09 eabe 5ad3 e93e b7b0 b73e 43d0 c23c
00000010: 3c8c b9bd 8dd3 a53e a4e1 e43e f59a 903e
00000020: 33e4 acbe bc93 2b3d 4333 0ebe c044 e0be
00000030: 6c2b cb3d bce7 203f aef6 023f c616 97be
00000040: 8186 da3e 739d 6f3d 9370 153f 4406 4dbf
00000050: e926 553e 4fe4 18bf 9638 b53e 35d8 d73e
00000060: 7208 cb3e b6dd aabe 105b 1c3e 877c 4c3e
00000070: 8b58 7abe fae9 fc3e 7416 d43e aba7 823e
00000080: dd6e 7dbe e380 f53e 9fa0 89be c1f4 10bf
00000090: 23ed 4dbe 815f 543c 7a51 c03e a628 2c3e
000000a0: db54 843e 3f37 57be 6ffe dd3e f0fc c33e
000000b0: 808e 47bf a8fa 153f 97d1 afbd 9c95 8b3d
000000c0: 5385 673d 1121 af3e 7f95 243d 52f8 13be
000000d0: 15dd 26be df59 99be 8284 8e3d 8bec 7bbe
000000e0: 22c3 cd3e e0b2 b7be 1062 123f e7b0 e7be
000000f0: 4a9f 0e3f 8b8a 703d cc44 ecbe b854 3a3e
00000100: 7982 d8be 69fb bfbe 7ba9 4bbc 3ccb 34be
00000110: 2c25 323e b45a 183f f787 20bf 059f 313f
00000120: fb06 cdbe 3cc0 0abe 3e52 f33e 3dde cdbd
00000130: 2469 abbe 9d59 31be 3886 a03e 6647 953d
00000140: 2393 043f 239d 623e 5ec1 0abf bf2a c1be
00000150: e483 be3d 3e6a 35bd 31d0 29be 64fd 473e
00000160: 5a80 6f3e 80db dabe dc9f f2bd 56b5 a73e
00000170: 2273 203e f236 afbd dd73 8c3e 24a6 af3e
00000180: a058 22bf b6e9 19bf b3d6 063d 5e5c 963e
-0.45710692 0.4566906 0.3587701 0.023780948 -0.09059951 0.32387963 0.447034 0.28243223
-0.33767852 0.041888937 -0.13886742 -0.43802452 0.099203914 0.628536 0.51157653 -0.29509562
0.42680743 0.058499765 0.583749 -0.80087686 0.20815624 -0.5972337 0.35394734 0.4215714
0.3965488 -0.33372277 0.15269113 0.19969378 -0.24447839 0.4939726 0.4142338 0.25518546
-0.24749322 0.47949895 -0.26880357 -0.56623465 -0.20109992 0.012962223 0.37562162 0.16812381
0.2584599 -0.21017168 0.4335818 0.38278913 -0.7795181 0.58585596 -0.08584898 0.06815645
0.056523632 0.34204915 0.040181633 -0.14450195 -0.16295274 -0.2995138 0.069588676 -0.24601953
0.40187937 -0.35878658 0.5718088 -0.45252153 0.55711806 0.058725875 -0.46146238 0.1819638
-0.42287043 -0.37496498 -0.012430544 -0.17655653 0.17396992 0.595134 -0.62707466 0.6938327
-0.40044388 -0.13549894 0.47523683 -0.10052154 -0.33478653 -0.17319341 0.313524 0.07289009
0.5178701 0.22130255 -0.54201305 -0.37727925 0.093025 -0.044290774 -0.16583325 0.19530255
0.23388806 -0.4274559 -0.11846897 0.32755536 0.1566892 -0.08555402 0.27432147 0.34306443
-0.6341648 -0.6012224 0.032919597 0.29367346

model.4.bias f4 [10]
00000000: 42bb eebd 2665 9d3d f315 d9bd cf4a cbbc
00000010: 2788 4dbe e85f 063e 2d81 2d3c cf7d 3f3e
00000020: f1b1 253d 33d7 d03d
-0.1165681 0.07685308 -0.105998896 -0.024815945 -0.20071469 0.13122523 0.01058988 0.18700336
0.0404529 0.10197296
